…
__________________________________________________________________________________________________[0K
 Layer (type)                Output Shape                 Param #   Connected to[0K
==================================================================================================[0K
 conv2d_input (InputLayer)   [(None, 1000, 21, 1)]        0         [][0K
[0K
 conv2d_3_input (InputLayer  [(None, 1000, 21, 1)]        0         [][0K
 )[0K
[0K
 conv2d_6_input (InputLayer  [(None, 1000, 21, 1)]        0         [][0K
 )[0K
[0K
 conv2d_9_input (InputLayer  [(None, 1000, 21, 1)]        0         [][0K
 )[0K
[0K
 conv2d (Conv2D)             (None, 997, 1, 128)          10880     ['conv2d_input[0][0]'][0K
[0K
 conv2d_3 (Conv2D)           (None, 989, 1, 128)          32384     ['conv2d_3_input[0][0]'][0K
[0K
 conv2d_6 (Conv2D)           (None, 985, 1, 128)          43136     ['conv2d_6_input[0][0]'][0K
[0K
 conv2d_9 (Conv2D)           (None, 995, 1, 128)          16256     ['conv2d_9_input[0][0]'][0K
[0K
 batch_normalization (Batch  (None, 997, 1, 128)          512       ['conv2d[0][0]'][0K
 Normalization)[0K
[0K
 batch_normalization_3 (Bat  (None, 989, 1, 128)          512       ['conv2d_3[0][0]'][0K
 chNormalization)[0K
[0K
 batch_normalization_6 (Bat  (None, 985, 1, 128)          512       ['conv2d_6[0][0]'][0K
 chNormalization)[0K
[0K
 batch_normalization_9 (Bat  (None, 995, 1, 128)          512       ['conv2d_9[0][0]'][0K
 chNormalization)[0K
[0K
 activation (Activation)     (None, 997, 1, 128)          0         ['batch_normalization[0][0]'][0K
[0K
 activation_3 (Activation)   (None, 989, 1, 128)          0         ['batch_normalization_3[0][0]'[0K
                                                                    ][0K
[0K
 activation_6 (Activation)   (None, 985, 1, 128)          0         ['batch_normalization_6[0][0]'[0K
                                                                    ][0K
[0K
 activation_9 (Activation)   (None, 995, 1, 128)          0         ['batch_normalization_9[0][0]'[0K
                                                                    ][0K
[0K
 dropout (Dropout)           (None, 997, 1, 128)          0         ['activation[0][0]'][0K
[0K
 dropout_3 (Dropout)         (None, 989, 1, 128)          0         ['activation_3[0][0]'][0K
[0K
 dropout_6 (Dropout)         (None, 985, 1, 128)          0         ['activation_6[0][0]'][0K
[0K
 dropout_9 (Dropout)         (None, 995, 1, 128)          0         ['activation_9[0][0]'][0K
[0K
 conv2d_1 (Conv2D)           (None, 994, 1, 128)          65664     ['dropout[0][0]'][0K
[0K
 conv2d_4 (Conv2D)           (None, 982, 1, 128)          131200    ['dropout_3[0][0]'][0K
[0K
 conv2d_7 (Conv2D)           (None, 982, 1, 128)          65664     ['dropout_6[0][0]'][0K
[0K
 conv2d_10 (Conv2D)          (None, 990, 1, 128)          98432     ['dropout_9[0][0]'][0K
[0K
 batch_normalization_1 (Bat  (None, 994, 1, 128)          512       ['conv2d_1[0][0]'][0K
 chNormalization)[0K
[0K
 batch_normalization_4 (Bat  (None, 982, 1, 128)          512       ['conv2d_4[0][0]'][0K
 chNormalization)[0K
[0K
 batch_normalization_7 (Bat  (None, 982, 1, 128)          512       ['conv2d_7[0][0]'][0K
 chNormalization)[0K
[0K
 batch_normalization_10 (Ba  (None, 990, 1, 128)          512       ['conv2d_10[0][0]'][0K
 tchNormalization)[0K
[0K
 activation_1 (Activation)   (None, 994, 1, 128)          0         ['batch_normalization_1[0][0]'[0K
                                                                    ][0K
[0K
 activation_4 (Activation)   (None, 982, 1, 128)          0         ['batch_normalization_4[0][0]'[0K
                                                                    ][0K
[0K
 activation_7 (Activation)   (None, 982, 1, 128)          0         ['batch_normalization_7[0][0]'[0K
                                                                    ][0K
[0K
 activation_10 (Activation)  (None, 990, 1, 128)          0         ['batch_normalization_10[0][0][0K
                                                                    '][0K
[0K
 dropout_1 (Dropout)         (None, 994, 1, 128)          0         ['activation_1[0][0]'][0K
[0K
 dropout_4 (Dropout)         (None, 982, 1, 128)          0         ['activation_4[0][0]'][0K
[0K
 dropout_7 (Dropout)         (None, 982, 1, 128)          0         ['activation_7[0][0]'][0K
[0K
 dropout_10 (Dropout)        (None, 990, 1, 128)          0         ['activation_10[0][0]'][0K
[0K
 conv2d_2 (Conv2D)           (None, 979, 1, 128)          262272    ['dropout_1[0][0]'][0K
[0K
 conv2d_5 (Conv2D)           (None, 979, 1, 128)          65664     ['dropout_4[0][0]'][0K
[0K
 conv2d_8 (Conv2D)           (None, 979, 1, 128)          65664     ['dropout_7[0][0]'][0K
[0K
 conv2d_11 (Conv2D)          (None, 979, 1, 128)          196736    ['dropout_10[0][0]'][0K
[0K
 batch_normalization_2 (Bat  (None, 979, 1, 128)          512       ['conv2d_2[0][0]'][0K
 chNormalization)[0K
[0K
 batch_normalization_5 (Bat  (None, 979, 1, 128)          512       ['conv2d_5[0][0]'][0K
 chNormalization)[0K
[0K
 batch_normalization_8 (Bat  (None, 979, 1, 128)          512       ['conv2d_8[0][0]'][0K
 chNormalization)[0K
[0K
 batch_normalization_11 (Ba  (None, 979, 1, 128)          512       ['conv2d_11[0][0]'][0K
 tchNormalization)[0K
[0K
 activation_2 (Activation)   (None, 979, 1, 128)          0         ['batch_normalization_2[0][0]'[0K
                                                                    ][0K
[0K
 activation_5 (Activation)   (None, 979, 1, 128)          0         ['batch_normalization_5[0][0]'[0K
                                                                    ][0K
[0K
 activation_8 (Activation)   (None, 979, 1, 128)          0         ['batch_normalization_8[0][0]'[0K
                                                                    ][0K
[0K
 activation_11 (Activation)  (None, 979, 1, 128)          0         ['batch_normalization_11[0][0][0K
                                                                    '][0K
[0K
 dropout_2 (Dropout)         (None, 979, 1, 128)          0         ['activation_2[0][0]'][0K
[0K
 dropout_5 (Dropout)         (None, 979, 1, 128)          0         ['activation_5[0][0]'][0K
[0K
 dropout_8 (Dropout)         (None, 979, 1, 128)          0         ['activation_8[0][0]'][0K
[0K
 dropout_11 (Dropout)        (None, 979, 1, 128)          0         ['activation_11[0][0]'][0K
[0K
 concatenate (Concatenate)   (None, 979, 1, 512)          0         ['dropout_2[0][0]',[0K
                                                                     'dropout_5[0][0]',[0K
                                                                     'dropout_8[0][0]',[0K
                                                                     'dropout_11[0][0]'][0K
[0K
 conv2d_12 (Conv2D)          (None, 979, 1, 512)          262656    ['concatenate[0][0]'][0K
[0K
 batch_normalization_12 (Ba  (None, 979, 1, 512)          2048      ['conv2d_12[0][0]'][0K
 tchNormalization)[0K
[0K
 activation_12 (Activation)  (None, 979, 1, 512)          0         ['batch_normalization_12[0][0][0K
                                                                    '][0K
[0K
 max_pooling2d (MaxPooling2  (None, 489, 1, 512)          0         ['activation_12[0][0]'][0K
 D)[0K
[0K
 time_distributed (TimeDist  (None, 489, 512)             0         ['max_pooling2d[0][0]'][0K
 ributed)[0K
[0K
 bidirectional (Bidirection  (None, 256)                  656384    ['time_distributed[0][0]'][0K
 al)[0K
[0K
 dense (Dense)               (None, 1)                    257       ['bidirectional[0][0]'][0K
[0K
==================================================================================================[0K
Total params: 1981441 (7.56 MB)[0K
Trainable params: 1977345 (7.54 MB)[0K
Non-trainable params: 4096 (16.00 KB)[0K
__________________________________________________________________________________________________[0K
Testing sequence shape: (7455, 1000, 21) <class 'numpy.ndarray'>[0K
…
